Namespace(adjoint=False, batch_size=128, gpu=0, lr=0.01, nepochs=30, network='resnet', save='./resnet', solver='dopri5', test_batch_size=1000, tol=0.001)
ResNet(
  (downsampling_layers): Sequential(
    (0): Conv2d(1, 64, kernel_size=(3, 3), stride=(1, 1))
    (1): GroupNorm(32, 64, eps=1e-05, affine=True)
    (2): ReLU(inplace)
    (3): Conv2d(64, 64, kernel_size=(4, 4), stride=(2, 2), padding=(1, 1))
    (4): GroupNorm(32, 64, eps=1e-05, affine=True)
    (5): ReLU(inplace)
    (6): Conv2d(64, 64, kernel_size=(4, 4), stride=(2, 2), padding=(1, 1))
  )
  (resblocks): Sequential(
    (0): ResBlock(
      (norm1): GroupNorm(32, 64, eps=1e-05, affine=True)
      (relu): ReLU(inplace)
      (conv1): Conv2d(64, 64, kernel_size=(3, 3), stride=(1, 1), padding=(1, 1), bias=False)
      (norm2): GroupNorm(32, 64, eps=1e-05, affine=True)
      (conv2): Conv2d(64, 64, kernel_size=(3, 3), stride=(1, 1), padding=(1, 1), bias=False)
    )
    (1): ResBlock(
      (norm1): GroupNorm(32, 64, eps=1e-05, affine=True)
      (relu): ReLU(inplace)
      (conv1): Conv2d(64, 64, kernel_size=(3, 3), stride=(1, 1), padding=(1, 1), bias=False)
      (norm2): GroupNorm(32, 64, eps=1e-05, affine=True)
      (conv2): Conv2d(64, 64, kernel_size=(3, 3), stride=(1, 1), padding=(1, 1), bias=False)
    )
    (2): ResBlock(
      (norm1): GroupNorm(32, 64, eps=1e-05, affine=True)
      (relu): ReLU(inplace)
      (conv1): Conv2d(64, 64, kernel_size=(3, 3), stride=(1, 1), padding=(1, 1), bias=False)
      (norm2): GroupNorm(32, 64, eps=1e-05, affine=True)
      (conv2): Conv2d(64, 64, kernel_size=(3, 3), stride=(1, 1), padding=(1, 1), bias=False)
    )
    (3): ResBlock(
      (norm1): GroupNorm(32, 64, eps=1e-05, affine=True)
      (relu): ReLU(inplace)
      (conv1): Conv2d(64, 64, kernel_size=(3, 3), stride=(1, 1), padding=(1, 1), bias=False)
      (norm2): GroupNorm(32, 64, eps=1e-05, affine=True)
      (conv2): Conv2d(64, 64, kernel_size=(3, 3), stride=(1, 1), padding=(1, 1), bias=False)
    )
    (4): ResBlock(
      (norm1): GroupNorm(32, 64, eps=1e-05, affine=True)
      (relu): ReLU(inplace)
      (conv1): Conv2d(64, 64, kernel_size=(3, 3), stride=(1, 1), padding=(1, 1), bias=False)
      (norm2): GroupNorm(32, 64, eps=1e-05, affine=True)
      (conv2): Conv2d(64, 64, kernel_size=(3, 3), stride=(1, 1), padding=(1, 1), bias=False)
    )
    (5): ResBlock(
      (norm1): GroupNorm(32, 64, eps=1e-05, affine=True)
      (relu): ReLU(inplace)
      (conv1): Conv2d(64, 64, kernel_size=(3, 3), stride=(1, 1), padding=(1, 1), bias=False)
      (norm2): GroupNorm(32, 64, eps=1e-05, affine=True)
      (conv2): Conv2d(64, 64, kernel_size=(3, 3), stride=(1, 1), padding=(1, 1), bias=False)
    )
  )
  (fc_layers): Sequential(
    (0): GroupNorm(32, 64, eps=1e-05, affine=True)
    (1): ReLU(inplace)
    (2): AdaptiveAvgPool2d(output_size=(1, 1))
    (3): Flatten()
    (4): Linear(in_features=64, out_features=10, bias=True)
  )
)
Number of parameters: 576778
Epoch 0000 | Time 1.395 (1.395) | NFE-F 0.0 | NFE-B 0.0 | Train Acc 0.0962 | Test Acc 0.0947
Epoch 0001 | Time 1.121 (0.960) | NFE-F 0.0 | NFE-B 0.0 | Train Acc 0.9816 | Test Acc 0.9817
Epoch 0002 | Time 1.160 (0.949) | NFE-F 0.0 | NFE-B 0.0 | Train Acc 0.9811 | Test Acc 0.9824
Epoch 0003 | Time 1.161 (0.953) | NFE-F 0.0 | NFE-B 0.0 | Train Acc 0.9915 | Test Acc 0.9882
…
